models/something.pth (torch, 2509 bytes, 4 tensors)

fc1.weight f4 [20, 8]
0	0x3f167be3	0.58782786
1	0xbf87601f	-1.0576209
2	0x3fe366c6	1.7765739
3	0xc06dcf80	-3.7157898
4	0xc089dbd8	-4.3080864
5	0xc011f75d	-2.2807229
6	0x4022b580	2.542328
7	0x3ffdb3ef	1.9820536
8	0xc00e1836	-2.2202277
9	0xbfd6f3b3	-1.6793121
10	0xbfd8b381	-1.692978
11	0xc08cf8a3	-4.405351
12	0x3f5b9eb1	0.8578902
13	0x3f0a7acd	0.5409363
14	0x3fc11034	1.508307
15	0x3e88c52b	0.26712927
16	0xc02c7b91	-2.695042
17	0x3eafc7d9	0.3433216
18	0xbfe0a850	-1.7551365
19	0xc0128376	-2.2892737
20	0x3fb5c143	1.4199604
21	0x40190f9a	2.3915772
22	0x3f42b543	0.76057833
23	0xc004572d	-2.0678208
24	0xbf1c124c	-0.6096542
25	0x41814380	16.157959
26	0xbf311a0f	-0.6918039
27	0xc0af6028	-5.480488
28	0xbf2edb94	-0.683038
29	0x3dd0e00b	0.10198983
30	0x3deaa627	0.11457472
31	0x3e033117	0.12811695
32	0xbfafcbf2	-1.3734114
33	0xbffb5651	-1.9635717
34	0xbf8f5279	-1.1197044
35	0xc0b149d8	-5.540264
36	0xc00a450f	-2.160465
37	0xbe88889a	-0.2666672
38	0x3f67261e	0.9029254
39	0xbebe868f	-0.37212035
40	0xbfeb54fa	-1.8385308
41	0x4037a9e0	2.8697433
42	0xc0550021	-3.3281329
43	0xc00d22ec	-2.2052565
44	0x3f618f93	0.881097
45	0xbfce9376	-1.6138752
46	0xbff7030d	-1.9297806
47	0xbe8cd11d	-0.2750329
48	0xc0460f42	-3.0946813
49	0xbd45a432	-0.048252292
50	0xc0a1ce49	-5.0564313
51	0xc03cb29d	-2.9484017
52	0x4092eadc	4.5911694
53	0x3e3b0334	0.1826294
54	0xbe919efb	-0.28441605
55	0x3ed4ba01	0.4154816
56	0x3d2d9512	0.042378493
57	0x407034dc	3.7532263
58	0x3e55c151	0.20874526
59	0x3face181	1.3506318
60	0x3fadf318	1.3589811
61	0x40a3729a	5.1077394
62	0xbefc0313	-0.49221095
63	0xc0cd4f20	-6.415909
64	0xbfed8df6	-1.8558948
65	0xbee26767	-0.44219515
66	0xc00299af	-2.04063
67	0xbf405e54	-0.75143933
68	0x4029ccb8	2.65312
69	0x4041a479	3.0256636
70	0x3f98aeb1	1.1928312
71	0xbc5b434b	-0.013382743
72	0xc0450d2e	-3.0789294
73	0xbf002ab8	-0.50065184
74	0xc039a578	-2.9007244
75	0xbf98674b	-1.1906523
76	0xbf265fd3	-0.64989966
77	0xbffe58a7	-1.9870805
78	0xc0213672	-2.518948
79	0xbf00a938	-0.5025821
80	0xc018ec39	-2.389418
81	0xbfbea2e1	-1.4893457
82	0xbfd1bcb8	-1.6385717
83	0xc05c7fb9	-3.4452956
84	0xbd85c5ad	-0.06531844
85	0x3ef669b3	0.48127517
86	0xbf71e5aa	-0.94491065
87	0xbf9b8884	-1.2151036
88	0xbf4542dc	-0.77055144
89	0xbfd1949e	-1.6373479
90	0x3f152bcc	0.58269954
91	0xc0ba85cc	-5.8288326
92	0xbfb09aa2	-1.379719
93	0xbe0bf542	-0.13667777
94	0x3f67fea6	0.9062294
95	0xbf3ab4ae	-0.72931945
96	0xbf102457	-0.5630545
97	0x405d27e7	3.4555604
98	0x3ef9d7a1	0.48797324
99	0x40409d94	3.0096178
100	0xc00c409c	-2.1914434
101	0xc074acc4	-3.8230448
102	0xc0b2b4c5	-5.5845666
103	0xbfaaa63d	-1.3331982
104	0xbf94249b	-1.1573671
105	0xc01ca3b7	-2.4474924
106	0xbbcc27f2	-0.006230348
107	0xc0c6c5ad	-6.2116303
108	0xbf5bb423	-0.8582174
109	0x3e4b685f	0.19864033
110	0x3ef6a4ac	0.4817251
111	0x3eba2663	0.36357412
112	0xbfd148e6	-1.6350372
113	0xbed64ce3	-0.41855535
114	0xbfb803de	-1.437618
115	0xc079f0fc	-3.9053335
116	0x401064a9	2.2561438
117	0x3f748774	0.95519185
118	0x3fe636c0	1.7985458
119	0x40093372	2.143765
120	0xbf97be23	-1.18549
121	0x3fb84ff5	1.4399401
122	0x3f856e4c	1.0424285
123	0x3dd1d1cc	0.10245094
124	0x400cedb3	2.202008
125	0x40ad9655	5.424601
126	0x3e619514	0.22029525
127	0xc0a59a3e	-5.1750784
128	0x3f318c55	0.69354755
129	0xc04e6057	-3.22463
130	0x3fcf9404	1.6217046
131	0xc0af2177	-5.472835
132	0x3f0a40ee	0.54005325
133	0x3efa4f93	0.48888835
134	0x3d5b3ffa	0.05352781
135	0xbef12e8d	-0.47105828
136	0x402b377a	2.675261
137	0xbfafca36	-1.3733585
138	0x408195a5	4.049517
139	0xc087d4ff	-4.2447505
140	0xc0f0b89e	-7.5225363
141	0xbfa04ee7	-1.2524079
142	0x3f3614eb	0.7112567
143	0xbf7017ee	-0.93786514
144	0x3e812385	0.25222412
145	0x3fd74efd	1.682098
146	0xbf01fbec	-0.5077503
147	0x40b2ed33	5.591455
148	0xbe7fd68d	-0.24984188
149	0x3e7ac32b	0.24488513
150	0xbf34e07e	-0.7065505
151	0xbf1b3ce7	-0.60639805
152	0x3fbb7ea6	1.4648025
153	0x3fd6090b	1.672151
154	0xbf7b4fdb	-0.98168725
155	0xbf40f791	-0.75377756
156	0xc09cfa26	-4.9055357
157	0xc0cd442a	-6.414571
158	0xc0a62f58	-5.1932793
159	0x3ea15d21	0.31516364

fc1.bias f4 [20]
0	0xbf4176d5	-0.7557195
1	0xbff72bc3	-1.931023
2	0xc0285b22	-2.6305623
3	0x4147a8d6	12.47872
4	0xbf862e87	-1.0482949
5	0xbd0dcc0b	-0.03461842
6	0xc009d733	-2.1537597
7	0xbc8faf4d	-0.017539645
8	0xbf5c7876	-0.8612131
9	0xc01cc79c	-2.4496832
10	0xc025cf45	-2.5907757
11	0xc0001a4b	-2.0016048
12	0x3d7ddf01	0.06198025
13	0xbfd9306a	-1.69679
14	0xbfc164fa	-1.5108941
15	0xc01a3a60	-2.409813
16	0xbf782b65	-0.96941215
17	0xc0058a6e	-2.086574
18	0x40821612	4.065194
19	0xc0229fb6	-2.540998

fc2.weight f4 [4, 20]
0	0xbff97f39	-1.949195
1	0xc020e725	-2.514108
2	0xc07330c9	-3.7998526
3	0x40f40298	7.6253166
4	0xc0259481	-2.587189
5	0xc0049d5e	-2.072105
6	0xc0270187	-2.6094682
7	0xc0e92dc1	-7.286835
8	0xc006bb8f	-2.1051977
9	0xbfd8e8ab	-1.6946005
10	0xc0121cbc	-2.2830038
11	0xc006aa68	-2.1041508
12	0xc0eaecef	-7.3414226
13	0xc0045436	-2.0676398
14	0xbfb86dec	-1.4408545
15	0xc0a9cd2d	-5.306296
16	0xc030ae52	-2.7606397
17	0xc01a0e60	-2.4071274
18	0x409915c4	4.783907
19	0xc0b5bea0	-5.6795197
20	0xc00a4e2b	-2.161021
21	0xbfe98b28	-1.8245592
22	0xc04793f3	-3.118405
23	0x40f3a3da	7.6137514
24	0xc007b6c2	-2.1205297
25	0xc0684508	-3.6292133
26	0xbfb10c64	-1.3831906
27	0xc0f22d26	-7.5680113
28	0xc053adcc	-3.3074827
29	0xbfb86ccb	-1.4408201
30	0xc0394d09	-2.8953269
31	0xc00c14ea	-2.1887765
32	0xc0bff831	-5.999047
33	0xc0458dd5	-3.0867817
34	0xbfd71d87	-1.6805886
35	0xc0b4038a	-5.625432
36	0xc0640b5d	-3.5631936
37	0xbfeda394	-1.8565545
38	0x40860c83	4.1890273
39	0xc08f833c	-4.48477
40	0xc02247a8	-2.5356236
41	0xbfdc2d3f	-1.7201308
42	0xc0056741	-2.084427
43	0x41025639	8.14605
44	0x3c93fcdc	0.018064909
45	0xc00c1bbb	-2.1891925
46	0xc09ac439	-4.836453
47	0xc10312c5	-8.192082
48	0xc01ebed5	-2.4803975
49	0xbf599fca	-0.85009444
50	0xbf36b6e9	-0.7137285
51	0xc08f5621	-4.479264
52	0xc10d2bb8	-8.8231735
53	0xc0215fac	-2.5214643
54	0xbffbe789	-1.9680034
55	0xc0b761c3	-5.730684
56	0xbf8d61e0	-1.1045494
57	0xc05a6990	-3.412693
58	0x4043e13d	3.0606225
59	0xc0914161	-4.539231
60	0xbfdd086a	-1.7268193
61	0xc036c583	-2.8558052
62	0xc0282569	-2.6272833
63	0x40e7113f	7.220855
64	0xc03d18a0	-2.954628
65	0xbf29b0d4	-0.66285443
66	0xc0190eb6	-2.391523
67	0xc0d15da2	-6.54268
68	0xbf885b0c	-1.0652785
69	0xc0299c8c	-2.6501799
70	0xc02dbbfb	-2.7145984
71	0xc013fc92	-2.3122907
72	0xc10338b9	-8.201348
73	0xbf959530	-1.1686153
74	0xbfb6d1c8	-1.428277
75	0xc09b7b60	-4.8588104
76	0xbfd08956	-1.6291912
77	0xc01c88bc	-2.4458456
78	0x40be9714	5.955942
79	0xc0c35115	-6.1036477

fc2.bias f4 [4]
0	0x412d78f8	10.842033
1	0x41486a0f	12.525893
2	0x41197bca	9.592722
3	0x4121ecf9	10.120355
